…
olution Parameters — conv_params","title":"Common Convolution Parameters — conv_params","text":"Common Convolution Parameters","code":""},{"path":"https://hughjonesd.github.io/Rmlx/reference/conv_params.html","id":"arguments","dir":"Reference","previous_headings":"","what":"Arguments","title":"Common Convolution Parameters — conv_params","text":"input Input mlx array. Shape depends dimensionality (see individual functions). weight Weight array. Shape depends dimensionality (see individual functions). stride Stride convolution. Can scalar vector (length depends dimensionality). Default: 1 1D, c(1,1) 2D, c(1,1,1) 3D. padding Amount zero padding. Can scalar vector (length depends dimensionality). Default: 0 1D, c(0,0) 2D, c(0,0,0) 3D. dilation Spacing kernel elements. Can scalar vector (length depends dimensionality). Default: 1 1D, c(1,1) 2D, c(1,1,1) 3D. groups Number blocked connections input output channels. Default: 1.","code":""},{"path":"https://hughjonesd.github.io/Rmlx/reference/crossprod.mlx.html","id":null,"dir":"Reference","previous_headings":"","what":"Cross product — crossprod.mlx","title":"Cross product — crossprod.mlx","text":"Cross product","code":""},{"path":"https://hughjonesd.github.io/Rmlx/reference/crossprod.mlx.html","id":"
…
